model/MNIST_Digit_Detector.pt (torch, 28175 bytes, 8 tensors)

conv_block_1.0.weight f4 [10, 1, 3, 3]
0.22393824 0.6172432 1.054754 -0.053550385 0.19836448 0.21900149 -1.2194822 -1.2213354
-0.7012727 -1.8924733 -1.7361501 -1.7234578 -5.9315763 0.09587783 -0.123670705 -0.66124153
-0.03137723 0.78077453 0.21683456 -0.19986558 -0.13854627 -1.1355505 -0.374542 -0.76352495
-0.81665534 -0.07889333 0.116332814 0.13499601 -0.77630883 -0.5038577 0.06046087 -0.09006471
-0.18706092 -0.3395878 -0.3721541 0.27629083 -1.3216037 -1.2801939 0.13382521 -3.7131357
-0.37496176 -2.4830692 -0.58215874 0.7323337 -1.1339494 1.1695236 0.089686 -0.89217705
0.6303209 -1.4987143 -0.84496045 -0.7503675 -2.8722584 -2.4505732 0.50925887 -0.4473029
-1.5132116 0.7339164 -0.3591751 -0.24883603 0.46693957 0.46411583 0.58984053 -1.5569681
-1.0258411 -1.8119743 -0.86428016 -0.16497071 -0.050085403 0.21801266 0.356033 -0.08384985
-0.23430824 -0.22954032 -0.1893034 -0.18634737 -0.0622828 -0.07557312 -0.2563123 0.035042554
-0.13150851 -0.37454507 -0.36543012 1.237922 -1.575502 -0.25077307 0.22943372 -0.2342852
-0.022664336 0.6496776
00000000: 1150 653e a603 1e3f 2e02 873f a657 5bbd
00000010: 0f20 4b3e ed41 603e fe17 9cbf b854 9cbf
00000020: 9c86 33bf 913c f2bf 2b3a debf 449a dcbf
00000030: 79cf bdc0 995b c43d 1147 fdbd 2047 29bf
00000040: 6985 00bd d7e0 473f e109 5e3e 90a9 4cbe
00000050: 13df 0dbe b859 91bf f8c3 bfbe 5f76 43bf
00000060: 5310 51bf d492 a1bd e63f ee3d 653c 0a3e
00000070: 2dbc 46bf d1fc 00bf d1a5 773d d973 b8bd
00000080: e68c 3fbe 74de adbe fb8a bebe fe75 8d3e
00000090: 4f2a a9bf 65dd a3bf 7a09 093e 04a4 6dc0
000000a0: fdfa bfbe 9bea 1ec0 5b08 15bf 397a 3b3f
000000b0: 4125 91bf f3b2 953f 4bad b73d b765 64bf
000000c0: b65c 213f dfd5 bfbf 544f 58bf 1618 40bf
000000d0: 15d3 37c0 31d6 1cc0 ca5e 023f e304 e5be
000000e0: ebb0 c1bf f2e1 3b3f cce5 b7be dfce 7ebe
000000f0: b412 ef3e 97a0 ed3e caff 163f bb4a c7bf
00000100: c34e 83bf c6ee e7bf 7741 5dbf 15ee 28be
00000110: 5a26 4dbd b63e 5f3e f549 b63e 78b9 abbd
00000120: 80ee 6fbe 9e0c 6bbe c0d8 41be d8d1 3ebe
00000130: 401c 7fbd 14c6 9abd 5e3b 83be c888 0f3d
00000140: 2baa 06be 5fc4 bfbe a819 bbbe 3a74 9e3f
00000150: 0daa c9bf 5465 80be acf0 6a3e 76e8 6fbe
00000160: 8faa b9bc 4551 263f

conv_block_1.0.bias f4 [10]
-0.008111004 0.071118906 -0.38611013 -0.41475958 0.21600477 -0.10889513 -0.83975774 -0.69337994
-0.15230386 -0.76206505
00000000: 04e4 04bc caa6 913d 3ab0 c5be 5e5b d4be
00000010: 5b30 5d3e 6904 dfbd 5dfa 56bf 5981 31bf
00000020: 8bf5 1bbe b216 43bf

conv_block_1.2.weight f4 [10, 10, 2, 2]
-0.7745315 -1.6117197 -0.15231667 -3.2214031 -0.52923757 0.17731388 -0.89222336 0.8338694
-0.17005612 0.43690258 -0.124908835 0.32447916 -0.30094004 0.45312202 -0.19593744 0.5823747
0.1872511 -0.75514346 0.21285231 -1.2459853 -0.11680633 -0.4705193 -0.866574 -2.2095118
-1.8649297 -0.07580883 -1.8249891 -0.855465 -0.7126469 0.45429823 -0.4149601 0.332281
-0.1579875 0.14100556 0.12602492 0.04055135 -0.7445118 -1.8871804 -1.3907557 0.09512651
-1.3329749 0.5170564 -1.4763446 -1.5813988 -3.1410859 -4.327674 -1.7895133 -0.1957504
-0.2968101 -0.17161486 0.0672552 -0.3300509 0.11423921 0.07940227 0.07171839 0.03236208
-4.113256 -2.6179338 -0.45471668 -1.0984273 -0.51368046 0.8991643 -1.0123683 -0.6667943
-0.51494277 -0.88122004 -0.17286205 0.34509122 -1.3411301 -1.9653658 -2.526033 -1.0839224
0.0940211 -0.00733909 -0.12595403 -0.0140657425 -3.0154068 -2.941107 -1.8046899 -0.6262815
0.7672731 -1.202048 -1.3097923 0.1270192 0.4745853 0.39454743 0.04011888 -0.55283266
0.68294954 -0.10336964 -0.26651272 0.0056151045 -0.13467894 0.5785683 -0.20402092 -0.13313316
0.18746944 -3.6613135 -0.06570515 -3.1738136 -0.46859983 -1.8806039 -1.4594121 -0.14296395
-0.34379563 -0.15512769 -0.16238822 -0.4000088 -0.1608257 0.38753995 0.0060514864 -0.15437077
-0.10292253 0.07570501 0.011334628 -0.08873442 -0.5724447 0.1967479 0.24402986 -0.21231258
-0.23378788 -0.16726944 -0.10493832 -0.046675112 0.011659011 0.014155066 -0.033764932 -0.06425085
-0.010275517 -0.11362238 -0.053019293 -0.14000769 0.001159946 0.040675096 0.037093412 -0.21218057
-0.22343877 -0.06534541 -0.40614408 -0.02434313 -0.22248967 -0.17735493 -0.1761057 -0.27649212
-0.12107199 -0.026611038 -0.13332862 -0.13955651 -0.09609078 -0.14162171 -0.16004162 -0.15406059
0.03119962 -0.02310045 0.119792685 0.122850135 -0.02911656 -0.027451975 -0.16088937 -0.20714583
0.018659411 -0.7166674 -0.10885901 -1.7818199 -0.27571923 -4.635034 -0.54712546 -0.24142063
0.14855097 -0.33160418 0.26347515 -0.33133137 -0.10944548 0.16653544 -0.13159075 -0.2868102
-4.0132885 -1.2073693 -1.8450638 -1.3451269 -0.3202957 -0.6016954 -2.019968 -0.34472057
-3.4958227 -0.20311894 -3.274357 -0.31017396 -0.37099892 -0.1353528 -1.7872292 -1.3494511
0.13252105 -0.011135668 -0.101359315 0.019410104 0.18299837 0.0010913688 0.49059325 -0.3225286
-0.35091624 0.059778076 -0.5625157 -0.50845194 -0.053174943 -0.2422717 -0.32593545 -0.5655344
-0.40757552 -0.2890183 -0.8133069 -0.4976836 -0.24769269 -0.16488554 -0.7102711 -0.5268985
-0.3586215 -0.174444 -0.6054518 -0.5491987 -0.25819784 -0.20255277 -0.2949565 -0.5266921
-0.40200657 -0.122617565 -0.17530312 -0.15730835 -0.035141725 -0.17855169 -0.17990367 -0.50308424
0.024352714 0.07950689 0.11773385 -0.06254042 -0.35034156 -0.40139633 -0.60112774 -0.74457467
-0.506086 -0.5166498 -0.46087745 -0.42028272 0.07476901 -0.4091522 -0.04818668 -0.53064597
-0.166228 -0.16370131 -0.037164155 -0.19133027 -0.18144898 -0.18575805 -0.10794103 -0.14312677
00000000: b247 46bf d54c cebf e7f8 1bbe 782b 4ec0
00000010: 1d7c 07bf c591 353e c068 64bf 7778 553f
00000020: 3123 2ebe b2b1 df3e 34d0 ffbd 2222 a63e
00000030: d014 9abe 9cff e73e d3a3 48be 8216 153f
00000040: c1be 3f3e 1551 41bf f5f5 593e 727c 9fbf
00000050: 2838 efbd e8e7 f0be cbd7 5dbf a468 0dc0
00000060: 04b6 eebf a941 9bbd 3e99 e9bf c1ff 5abf
00000070: 0770 36bf c799 e83e a675 d4be bc20 aa3e
00000080: 7ac7 21be c363 103e ad0c 013e 2c19 263d
00000090: 5398 3ebf 218f f1bf 4804 b2bf b0d1 c23d
000000a0: ec9e aabf cf5d 043f dcf8 bcbf 476b cabf
000000b0: 8d07 49c0 4e7c 8ac0 c60e e5bf cb72 48be
000000c0: 7ef7 97be cebb 2fbe 18bd 893d 6efc a8be
000000d0: 3ff6 e93d a89d a23d 17e1 923d 1a8e 043d
000000e0: cb9f 83c0 3a8c 27c0 a0d0 e8be 4499 8cbf
000000f0: 9080 03bf a22f 663f 4995 81bf 08b3 2abf
00000100: 4ad3 03bf a397 61bf c002 31be ccaf b03e
00000110: 27aa abbf 1b91 fbbf 86aa 21c0 f8bd 8abf
00000120: 228e c03d c07c f0bb 18fa 00be 0074 66bc
00000130: 6dfc 40c0 193b 3cc0 1400 e7bf fc53 20bf
00000140: 036c 443f b5dc 99bf 46a7 a7bf 5211 023e
00000150: d8fc f23e 1f02 ca3e b253 243d 7186 0dbf
00000160: c8d5 2e3f 76b3 d3bd 5b74 88be e9fe b73b
00000170: 47e9 09be 0d1d 143f dcea 50be 0f54 08be
00000180: fdf7 3f3e f652 6ac0 6c90 86bd c31f 4bc0
00000190: 51ec efbe a1b7 f0bf 04ce babf 2465 12be
000001a0: fb05 b0be cbd9 1ebe 1949 26be f4cd ccbe
000001b0: 7eaf 24be a36b c63e 8c4b c63b 5f13 1ebe
000001c0: 0cc9 d2bd 3a0b 9b3d e0b4 393c 64ba b5bd
000001d0: bc8b 12bf 4878 493e f7e2 793e 7868 59be
000001e0: 1766 6fbe ae48 2bbe e7e9 d6bd 672e 3fbd
000001f0: 7005 3f3c a6ea 673c 194d 0abd f395 83bd
00000200: a45a 28bc dab2 e8bd c22a 59bd 2d5e 0fbe
00000210: 5409 983a ee9a 263d 43ef 173d dd45 59be
00000220: 22cd 64be d0d3 85bd 1ef2 cfbe 3e6b c7bc
00000230: 55d4 63be 889c 35be 0d55 34be 6090 8dbe
00000240: 97f4 f7bd 64ff d9bc 4c87 08be e7e7 0ebe
00000250: 3ecb c4bd 4805 11be f3e1 23be 0fc2 1dbe
00000260: 5896 ff3c 283d bdbc de55 f53d da98 fb3d
00000270: da85 eebc f7e2 e0bc 2fc0 24be 091e 54be
00000280: 9fdb 983c 8477 37bf 79f1 debd ad12 e4bf
00000290: 122b 8dbe 3352 94c0 6a10 0cbf f836 77be
000002a0: bf1d 183e 06c8 a9be 37e6 863e 44a4 a9be
000002b0: f424 e0bd 4488 2a3e babf 06be c9d8 92be
000002c0: dc6c 80c0 148b 9abf 0d2b ecbf 1e2d acbf
000002d0: ccfd a3be b608 1abf 2847 01c0 377f b0be
000002e0: 8fbb 5fc0 69fe 4fbe 118f 51c0 1fcf 9ebe
000002f0: 92f3 bdbe ed99 0abe edc3 e4bf d0ba acbf
00000300: 99b3 073e 6072 36bc 7995 cfbd f001 9f3c
00000310: ed63 3b3e 430c 8f3a 0a2f fb3e 7822 a5be
00000320: 4bab b3be dbd9 743d 0701 10bf e829 02bf
00000330: f8cd 59bd 1316 78be 03e1 a6be ddc6 10bf
00000340: bdad d0be 35fa 93be e234 50bf 63d0 febe
00000350: 27a3 7dbe c1d7 28be 54d4 35bf d2e2 06bf
00000360: 3d9d b7be 73a1 32be e4fe 1abf 4998 0cbf
00000370: 8232 84be fe69 4fbe 8a04 97be 4bd5 06bf
00000380: ced3 cdbe eb1e fbbd a982 33be 7115 21be
00000390: c5f0 0fbd 41d6 36be ab38 38be 21ca 00bf
000003a0: 587f c73c 82d4 a23d 721e f13d 3115 80bd
000003b0: f85f b3be d283 cdbe 82e3 19bf 729c 3ebf
000003c0: da8e 01bf 2943 04bf 21f8 ebbe 4c2f d7be
000003d0: 7f20 993d 667c d1be 655f 45bd 6ad8 07bf
000003e0: ac37 2abe 51a1 27be 7139 18bd 15ec 43be
000003f0: c3cd 39be 5c37 3ebe 3010 ddbd d38f 12be

conv_block_1.2.bias f4 [10]
-0.21425985 -0.04732928 0.13057674 -0.08569133 0.06892935 -0.77877903 -0.39694795 -0.13299899
-0.036644455 0.0953428
00000000: ef66 5bbe 59dc 41bd e9b5 053e f07e afbd
00000010: d52a 8d3d 105e 47bf c33c cbbe e330 08be
00000020: 7f18 16bd 1643 c33d

conv_block_2.0.weight f4 [10, 10, 3, 3]
-0.010597134 -0.16023237 0.033118356 -0.025370084 -0.12439916 -0.09658163 -0.19717693 -0.11765329
-0.23322132 -0.3580817 -0.111974455 -0.08158598 -0.45102736 -0.13325843 -0.06923962 -0.51793927
-0.197941 -0.19711064 0.013808462 -0.17006712 -0.13360612 0.020189255 0.0115413945 -0.16857608
-0.13093548 -0.052844215 -0.3092703 0.088167414 -0.107089445 -0.057476018 -0.108279385 -0.15095234
0.029897304 -0.1535107 -0.08362915 -0.06286466 -0.16533424 -0.112330355 -0.15808327 -0.3483553
-0.019917356 -0.05292499 -0.2521278 -0.095201954 -0.04867076 -0.43137118 -0.4303178 -0.37496784
-0.008109658 -0.14334817 -0.2642761 -0.19593956 -0.0020971939 -0.14657131 0.06493492 -0.031696837
0.029315181 -0.12845895 -0.114543326 -0.12827921 -0.09054169 0.14845279 -0.007313582 -0.0922703
-0.009805522 -0.03558421 -0.08436208 -0.11315853 -0.17135704 -0.12294901 -0.12874 -0.15937364
0.014103945 -0.15580958 0.03124646 -0.00910142 -0.06492437 -0.10372706 0.014093738 0.0070887357
-0.13596302 -0.15805678 -0.22200504 -0.08855492 -0.06572914 0.0593844 -0.119615786 -0.051386163
-0.103751466 -0.03494752 0.16160569 0.089818485 -0.15176153 0.34011868 0.08350446 -0.36276314
-0.7197982 -2.2647502 -0.288712 -3.3006902 0.029136429 0.4007403 -0.382996 0.35768723
0.6978335 0.57695675 0.55653465 0.15827863 0.35046294 0.048870653 0.29538086 0.2386358
0.0347618 -0.4033825 -0.04464827 -0.64634323 -0.95031726 -0.05369975 -0.043724816 0.036605097
-0.06282852 0.17272042 -0.07873568 0.10335337 0.13863513 -0.13158621 -0.17318428 0.6353143
0.2158853 0.3107361 0.06514425 0.28487593 0.079572886 0.3173314 -0.075417936 -0.6806525
-0.3270655 -0.33750254 -0.6176741 -0.0047516855 -0.1326555 0.6057417 0.17897713 -0.3824733
-0.5081091 -0.5474786 0.3184859 0.367535 0.16211675 0.42750195 -0.24047942 0.32469186
0.34610042 0.13456184 -0.01954184 -1.1279598 -0.018922566 -1.7750344 0.40512034 -0.4979322
-0.084030345 0.6709773 -0.27525288 0.23774338 -0.3178572 -0.2855977 -0.14109701 0.22336312
-0.3496426 0.20101285 1.1706016 -1.2323225 -0.06716161 -0.19167957 -0.68947536 0.25603986
-0.41462776 -0.66399485 -0.3323483 0.09790702 -0.147087 -0.15818577 -0.13132688 -0.17923646
-0.16567263 -0.1772359 -0.12576377 -0.026611501 -0.16811818 -0.1574765 -0.06889336 -0.077615276
-0.17082086 -0.027295152 -0.17669187 -0.09834755 -0.017710688 -0.19287832 -0.121986166 -0.05704687
-0.061721336 -0.051076885 -0.013608136 -0.13852887 0.0030543506 -0.019596888 -0.1677112 -0.1006937
-0.096981354 -0.013797619 -0.08692899 -0.1029815 -0.0651348 0.015244061 -0.14052474 0.034855038
-0.16253282 -0.16088235 -0.07037332 -0.10024864 -0.023730332 -0.047228877 -0.124497086 -0.10191324
-0.084585935 0.04176562 -0.06335044 -0.10905507 -0.036383897 -0.10729324 -0.015545625 -0.036669955
-0.017343983 0.04887937 0.15880565 -0.053247645 0.025053417 0.060477283 -0.15558434 0.085147105
-0.027447227 -0.15367344 -0.028817551 -0.032948636 -0.11881937 -0.09332854 -0.011009542 -0.016669966
-0.13435121 -0.059689876 -0.0251929 -0.07473352 -0.106850676 0.020650169 -0.02533142 -0.15185317
00000000: 9a9f 2dbc f413 24be 1da7 073d ecd4 cfbc
00000010: fdc4 febd 97cc c5bd c0e8 49be 35f4 f0bd
00000020: 92d1 6ebe 7c56 b7be dd52 e5bd 8d16 a7bd
00000030: 0fed e6be e674 08be 80cd 8dbd ab97 04bf
00000040: 0cb1 4abe 5fd7 49be e33c 623c 1326 2ebe
00000050: 0bd0 08be f063 a53c 1e18 3d3c 359f 2cbe
00000060: f313 06be 2d73 58bd ad58 9ebe 1e91 b43d
00000070: b651 dbbd f96b 6bbd 95c1 ddbd 4093 1abe
00000080: 31eb f43c e931 1dbe c345 abbd 30bf 80bd
00000090: 614d 29be 750d e6bd 95e0 21be a05b b2be
000000a0: b929 a3bc e0c7 58bd e516 81be 3ef9 c2bd
000000b0: fe5a 47bd afdc dcbe 9d52 dcbe c9fb bfbe
000000c0: 5fde 04bc ddc9 12be 324f 87be 61a4 48be
000000d0: 1371 09bb ca16 16be 99fc 843d 8bd4 01bd
000000e0: 6426 f03c be8a 03be b195 eabd a05b 03be
000000f0: ec6d b9bd 0204 183e c6a6 efbb 36f8 bcbd
00000100: 57a7 20bc c0c0 11bd 07c6 acbd a9bf e7bd
00000110: 3878 2fbe b1cc fbbd 6bd4 03be d832 23be
00000120: 3c14 673c 8c8c 1fbe 93f8 ff3c 1f1e 15bc
00000130: 11f7 84bd da6e d4bd 6ce9 663c a048 e83b
00000140: e439 0bbe a3d9 21be 4a55 63be 485c b5bd
00000150: 009d 86bd 0e3d 733d 1ff9 f4bd 4c7a 52bd
00000160: a67b d4bd 2125 0fbd f67b 253e c1f2 b73d
00000170: 6067 1bbe 0924 ae3e 6304 ab3d 17bc b9be
00000180: b244 38bf abf1 10c0 0fd2 93be 823e 53c0
00000190: 85af ee3c d52d cd3e 0d18 c4be c822 b73e
000001a0: 37a5 323f 70b3 133f 0e79 0e3f cb13 223e
000001b0: e16f b33e 982c 483d 293c 973e f15c 743e
000001c0: 6462 0e3d 2788 cebe 1be1 36bd c076 25bf
000001d0: fe47 73bf 45f4 5bbd cb18 33bd 3aef 153d
000001e0: 3dac 80bd 9fdd 303e 2c40 a1bd efaa d33d
000001f0: 5ef6 0d3e 89be 06be 3857 31be f5a3 223f
00000200: 0911 5d3e cd18 9f3e 596a 853d 42db 913e
00000210: 1cf7 a23d 4379 a23e b874 9abd 3e3f 2ebf
00000220: 2175 a7be 22cd acbe e41f 1ebf 07b4 9bbb
00000230: d8d6 07be e311 1b3f c845 373e 8ad3 c3be
00000240: 7013 02bf 8f27 0cbf 9510 a33e 8c2d bc3e
00000250: ef01 263e 89e1 da3e 3d40 76be 033e a63e
00000260: 1334 b13e 94ca 093e 3516 a0bc fd60 90bf
00000270: 7f03 9bbc 5434 e3bf ef6b cf3e f8f0 febe
00000280: 1a18 acbd 2bc5 2b3f f2ed 8cbe 0073 733e
00000290: 2ebe a2be dd39 92be bc7b 10be 4db9 643e
000002a0: 5b04 b3be 50d6 4d3e 46d6 953f bebc 9dbf
000002b0: 078c 89bd a647 44be 7581 30bf a817 833e
000002c0: 174a d4be 91fb 29bf 8e29 aabe 7a83 c83d
000002d0: f99d 16be 73fb 21be 8e7a 06be c389 37be
000002e0: 16a6 29be 547d 35be 38c8 00be 5d00 dabc
000002f0: 2c27 2cbe 8541 21be f617 8dbd c2f4 9ebd
00000300: aaeb 2ebe 159a dfbc b7ee 34be 716a c9bd
00000310: 0116 91bc e581 45be e2d3 f9bd fba9 69bd
00000320: 83cf 7cbd ff35 51bd a9f4 5ebc 83da 0dbe
00000330: 802b 483b a789 a0bc 7cbc 2bbe 8038 cebd
00000340: 299e c6bd 690f 62bc d407 b2bd f7e7 d2bd
00000350: 6565 85bd 3ac2 793c b8e5 0fbe 28c4 0e3d
00000360: 016f 26be 58be 24be e31f 90bd 294f cdbd
00000370: 1d66 c2bc 1173 41bd 54f8 febd e4b7 d0bd
00000380: 643b adbd 6d12 2b3d e0bd 81bd 4458 dfbd
00000390: 4807 15bd 8fbc dbbd 14b3 7ebc 3c33 16bd
000003a0: f814 8ebc bc35 483d f39d 223e 341a 5abd
000003b0: d33c cd3c 07b7 773d 8051 1fbe 9b61 ae3d
000003c0: 02d9 e0bc 925c 1dbe c912 ecbc 26f5 06bd
000003d0: 9257 f3bd 0923 bfbd 5e61 34bc 748f 88bc
000003e0: 5d93 09be 5f7d 74bd 5761 cebc e30d 99bd
000003f0: 87d4 dabd 8b2a a93c d783 cfbc 667f 1bbe

conv_block_2.0.bias f4 [10]
-0.23797731 -0.0967708 -0.051253147 -0.060052864 -0.051280946 -0.33293688 -0.055582736 -0.06351474
-0.051422793 -0.090372145
00000000: 53b0 73be c52f c6bd d2ee 51bd fef9 75bd
00000010: f80b 52bd b476 aabe b9aa 63bd 0414 82bd
00000020: b5a0 52bd 0815 b9bd

classifier.1.weight f4 [10, 490]
-0.0546677 -0.12546699 -0.009726984 -0.19963975 -0.1490424 -0.064629346 -0.122015126 0.06629476
0.03413123 -0.080930874 -0.16616945 -0.023475127 0.020861045 0.01969768 0.023911342 -0.002708093
-0.0762856 0.10125856 0.09928472 -0.025012676 -0.13413505 0.05276514 -0.11801279 -0.101193056
-0.009471881 0.01619277 -0.0037122676 -0.18130673 0.006090711 0.076353386 -0.037802216 -0.0774577
0.102106 -0.09181129 -0.25912905 0.021526976 0.032670647 0.07204237 -0.022818483 0.020452244
-0.021018598 -0.057334602 0.028169764 0.05710158 -0.12525658 0.011553176 0.004070986 0.0014895229
-0.072172776 1.1198324 -1.2120337 -4.190549 -0.6317902 -1.1364493 -0.18329637 -0.95069116
-1.1477174 -0.03607786 -1.2510564 -0.5806271 0.24180122 0.30982277 -2.9298673 -2.2734313
-0.099896364 -0.9102001 -0.5647958 -0.10555554 -1.2667885 -0.9427815 0.019067576 0.4918993
0.75895125 0.077418506 -0.07584151 1.3746916 1.9579967 1.0928695 0.98197913 0.856173
-2.1241567 1.2904632 -0.049679138 -1.9961071 0.6021478 -0.08055845 0.62060714 -0.6992214
-1.4621557 -0.6147822 -2.474649 -1.1610097 0.986369 -3.024223 -5.990535 -6.145538
-3.0984247 -2.996843 0.00933917 -0.007195281 0.013958429 0.025860442 0.0024457213 -0.042187992
0.007379787 0.038508806 0.046673127 -0.043308128 -0.04839994 -0.0696206 -0.009004713 -0.0042779897
0.031414144 -0.020538997 -0.07040665 -0.06619678 -0.076697476 -0.10345108 0.008044852 -0.04481908
-0.07194071 -0.099181704 0.07855179 -0.032583706 -0.094456546 -0.057809062 -0.10792219 -0.0967777
-0.06355426 0.120319284 -0.042598646 -0.06118298 -0.04626477 -0.04234635 -0.06686753 -0.061963145
-0.049331672 -0.13281828 -0.061121285 0.040856425 0.028844496 -0.0046443106 -0.036394425 0.009573627
0.03186863 -0.038336933 0.023959566 0.011551832 0.0030452667 -0.020039883 0.014504559 -0.0037638263
-0.021129297 0.006536251 -0.037101585 0.017384836 0.014792451 0.024266418 0.04315613 0.040902138
-0.03051826 -0.014460331 0.03712309 -0.024842456 -0.035314955 -0.030634161 0.02284217 -0.014465513
-0.0030855446 -0.041857332 0.01946482 -0.06717458 -0.026337778 0.08203386 0.0014673908 -0.028672064
0.005015865 0.059206482 0.01914359 -0.018893294 0.052263267 0.0010375206 -0.008821945 0.068515405
0.055584177 0.021958878 -0.06063923 0.07241917 0.019944841 0.013059804 -0.013278943 0.007379541
-0.024290958 -0.05662675 -0.02412823 0.0345624 1.3180207 0.49184853 -1.2858274 -0.89699966
-0.2253648 -0.5751742 -1.537344 1.3162501 -2.013862 -0.31518924 -0.18864486 0.40204474
0.35683733 -0.19957882 0.31975845 -0.54076225 -0.8527919 -0.48586044 0.50954956 -0.3314457
-2.0697472 2.0353053 -1.6629962 -2.8021114 -3.1655188 -3.2566564 -2.8371992 -3.621065
1.6362183 -2.6567886 -2.126859 0.3289264 1.0516748 -7.2141232 -8.836141 1.7261598
-3.6535525 -1.1477437 0.7646145 0.23594731 -3.5306163 -0.5267518 1.7798128 0.49711043
0.59545416 1.3492727 -0.8710257 0.6187616 0.693915 1.9317987 3.110063 1.1059452
-0.23749663 -1.8496567 -0.14924647 -2.832384 -2.6745038 -2.4547095 -2.491434 -1.3027117
00000000: 3deb 5fbd 6b7a 00be ee5d 1fbc 5d6e 4cbe
00000010: 929e 18be 645c 84bd 11e3 f9bd 8cc5 873d
00000020: 30cd 0b3d 16bf a5bd 5328 2abe e94e c0bc
00000030: c8e4 aa3c 075d a13c b8e1 c33c 437a 31bb
00000040: a03b 9cbd a660 cf3d ca55 cb3d 62e7 ccbc
00000050: b35a 09be 4220 583d b1b0 f1bd 4e3e cfbd
00000060: f32f 1bbc b3a6 843c 8449 73bb 79a8 39be
00000070: 9694 c73b 2a5f 9c3d 7fd6 1abd 25a2 9ebd
00000080: f31c d13d 8f07 bcbd 90ac 84be 5759 b03c
00000090: a8d1 053d f38a 933d d4ed babc 778b a73c
000000a0: 322f acbc b0d7 6abd 47c4 e63c 59e3 693d
000000b0: 4343 00be 8849 3d3c e865 853b 183c c33a
000000c0: 52cf 93bd ab56 8f3f ec23 9bbf fa18 86c0
000000d0: 01bd 21bf 2c77 91bf 0bb2 3bbe 7f60 73bf
000000e0: 67e8 92bf 61c6 13bd 9e22 a0bf faa3 14bf
000000f0: bd9a 773e 17a1 9e3e f282 3bc0 e67f 11c0
00000100: 7796 ccbd e002 69bf 7596 10bf 812d d8bd
00000110: 2026 a2bf 215a 71bf 9b33 9c3c 3ada fb3e
00000120: a14a 423f 988d 9e3d cb52 9bbd e5f5 af3f
00000130: a39f fa3f 26e3 8b3f fc62 7b3f 272e 5b3f
00000140: 2ff2 07c0 e62d a53f 5a7c 4bbd 7080 ffbf
00000150: 5c26 1a3f d4fb a4bd 1ce0 1e3f 2c00 33bf
00000160: eb27 bbbf 5e62 1dbf a660 1ec0 f79b 94bf
00000170: ae82 7c3f df8c 41c0 76b2 bfc0 3fa8 c4c0
00000180: 974c 46c0 47cc 3fc0 5103 193c 64c6 ebbb
00000190: e5b1 643c 47d9 d33c 6548 203b 51cd 2cbd
000001a0: 24d2 f13b 69bb 1d3d 522c 3f3d dd63 31bd
000001b0: 043f 46bd 3f95 8ebd 8188 13bc 612e 8cbb
000001c0: 1eac 003d 6641 a8bc 5d31 90bd 2d92 87bd
000001d0: 9113 9dbd 29de d3bd 8ece 033c 3694 37bd
000001e0: a755 93bd c71f cbbd c3df a03d 7e76 05bd
000001f0: 6f72 c1bd 32c9 6cbd 4f06 ddbd 6333 c6bd
00000200: bc28 82bd f569 f63d eb7b 2ebd 019b 7abd
00000210: 2180 3dbd 5e73 2dbd d8f1 88bd 11cd 7dbd
00000220: 0210 4abd 8401 08be 505a 7abd 1159 273d
00000230: 4b4b ec3c 4d2f 98bb 5212 15bd b4da 1c3c
00000240: ae88 023d 3007 1dbd da46 c43c e543 3d3c
00000250: 1993 473b ae2a a4bc 88a4 6d3c 87aa 76bb
00000260: 5917 adbc 0c2e d63b d5f7 17bd a56a 8e3c
00000270: 095c 723c 5eca c63c 7bc4 303d 0089 273d
00000280: 6e01 fabc 06eb 6cbc 620e 183d 6882 cbbc
00000290: 6aa6 10bd 7ef4 fabc 811f bb3c c200 6dbc
000002a0: d936 4abb 9872 2bbd b074 9f3c d492 89bd
000002b0: 53c2 d7bc 5e01 a83d 7755 c03a ade1 eabc
000002c0: 205c a43b 7f82 723d 05d3 9c3c 1cc6 9abc
000002d0: 0212 563d 6afd 873a eb89 10bc ce51 8c3d
000002e0: 3cac 633d 1be3 b33c d760 78bd 8050 943d
000002f0: 5d63 a33c caf8 553c ec8f 59bc 14d0 f13b
00000300: d5fd c6bc 73f1 67bd 91a8 c5bc 4e91 0d3d
00000310: e7b4 a83f 92d3 fb3e fe95 a4bf c5a1 65bf
00000320: 08c6 66be 9e3e 13bf b0c7 c4bf e27a a83f
00000330: 1de3 00c0 7c60 a1be 1e2c 41be cfd8 cd3e
00000340: 62b3 b63e 645e 4cbe 61b7 a33e 656f 0abf
00000350: 9250 5abf b3c2 f8be d771 023f 40b3 a9be
00000360: bd76 04c0 7142 0240 0fdd d4bf cb55 33c0
00000370: dc97 4ac0 0f6d 50c0 ac94 35c0 87bf 67c0
00000380: 9a6f d13f d308 2ac0 751e 08c0 0b69 a83e
00000390: 489d 863f 19da e6c0 d560 0dc1 cef2 dc3f
000003a0: ced3 69c0 44e9 92bf c7bd 433f 2c9c 713e
000003b0: 9ef5 61c0 35d9 06bf e8d0 e33f 4285 fe3e
000003c0: af6f 183f f8b4 ac3f 8afb 5ebf 2967 1e3f
000003d0: 6aa4 313f 2e45 f73f 460b 4740 9d8f 8d3f
000003e0: 5132 73be 8dc1 ecbf 11d4 18be c845 35c0
000003f0: 122b 2bc0 f619 1dc0 a873 1fc0 42bf a6bf

classifier.1.bias f4 [10]
-0.694707 6.091037 -0.48044372 -1.1615199 0.664804 -1.1184369 -0.30009395 1.8194997
-2.8535588 -0.19517624
00000000: 51d8 31bf c6e9 c240 b8fc f5be afac 94bf
00000010: 9830 2a3f f128 8fbf eaa5 99be 5ee5 e83f
00000020: b5a0 36c0 48dc 47be
